…
gment, erasing=0.4, crop_fraction=1.0, cfg=None, tracker=botsort.yaml, save_dir=runs/classify/train2
train: /content/drive/MyDrive/Pibic Oliveira/dataset/train... found 4113 images in 3 classes âœ… 
val: /content/drive/MyDrive/Pibic Oliveira/dataset/val... found 592 images in 3 classes âœ… 
test: /content/drive/MyDrive/Pibic Oliveira/dataset/test... found 1172 images in 3 classes âœ… 
Overriding model.yaml nc=1000 with nc=3

                   from  n    params  module                                       arguments                     
  0                  -1  1       464  ultralytics.nn.modules.conv.Conv             [3, 16, 3, 2]                 
  1                  -1  1      4672  ultralytics.nn.modules.conv.Conv             [16, 32, 3, 2]                
  2                  -1  1      7360  ultralytics.nn.modules.block.C2f             [32, 32, 1, True]             
  3                  -1  1     18560  ultralytics.nn.modules.conv.Conv             [32, 64, 3, 2]                
  4                  -1  2     49664  ultralytics.nn.modules.block.C2f             [64, 64, 2, True]             
  5                  -1  1     73984  ultralytics.nn.modules.conv.Conv             [64, 128, 3, 2]               
  6                  -1  2    197632  ultralytics.nn.modules.block.C2f             [128, 128, 2, True]           
  7                  -1  1    295424  ultralytics.nn.modules.conv.Conv             [128, 256, 3, 2]              
  8                  -1  1    460288  ultralytics.nn.modules.block.C2f             [256, 256, 1, True]           
  9                  -1  1    334083  ultralytics.nn.modules.head.Classify         [256, 3]                      
YOLOv8n-cls summary: 99 layers, 1442131 parameters, 1442131 gradients, 3.4 GFLOPs
Transferred 156/158 items from pretrained weights
TensorBoard: Start with 'tensorboard --logdir runs/classify/train2', view at http://localhost:6006/
AMP: running Automatic Mixed Precision (AMP) checks with YOLOv8n...
Downloading https://github.com/ultralytics/assets/releases/download/v8.2.0/yolov8n.pt to 'yolov8n.pt'...
…
ugment, erasing=0.4, crop_fraction=1.0, cfg=None, tracker=botsort.yaml, save_dir=runs/classify/train
train: /content/drive/MyDrive/Pibic Oliveira/dataset/train... found 4113 images in 3 classes âœ… 
val: /content/drive/MyDrive/Pibic Oliveira/dataset/val... found 592 images in 3 classes âœ… 
test: /content/drive/MyDrive/Pibic Oliveira/dataset/test... found 1172 images in 3 classes âœ… 
Overriding model.yaml nc=1000 with nc=3

                   from  n    params  module                                       arguments                     
  0                  -1  1      1392  ultralytics.nn.modules.conv.Conv             [3, 48, 3, 2]                 
  1                  -1  1     41664  ultralytics.nn.modules.conv.Conv             [48, 96, 3, 2]                
  2                  -1  2    111360  ultralytics.nn.modules.block.C2f             [96, 96, 2, True]             
  3                  -1  1    166272  ultralytics.nn.modules.conv.Conv             [96, 192, 3, 2]               
  4                  -1  4    813312  ultralytics.nn.modules.block.C2f             [192, 192, 4, True]           
  5                  -1  1    664320  ultralytics.nn.modules.conv.Conv             [192, 384, 3, 2]              
  6                  -1  4   3248640  ultralytics.nn.modules.block.C2f             [384, 384, 4, True]           
  7                  -1  1   2655744  ultralytics.nn.modules.conv.Conv             [384, 768, 3, 2]              
  8                  -1  2   7084032  ultralytics.nn.modules.block.C2f             [768, 768, 2, True]           
  9                  -1  1    989443  ultralytics.nn.modules.head.Classify         [768, 3]                      
YOLOv8m-cls summary: 141 layers, 15776179 parameters, 15776179 gradients, 41.9 GFLOPs
Transferred 228/230 items from pretrained weights
TensorBoard: Start with 'tensorboard --logdir runs/classify/train', view at http://localhost:6006/
AMP: running Automatic Mixed Precision (AMP) checks with YOLOv8n...
Downloading https://github.com/ultralytics/assets/releases/download/v8.2.0/yolov8n.pt to 'yolov8n.pt'...
…
gment, erasing=0.4, crop_fraction=1.0, cfg=None, tracker=botsort.yaml, save_dir=runs/classify/train2
train: /content/drive/MyDrive/Pibic Oliveira/dataset/train... found 4113 images in 3 classes âœ… 
val: /content/drive/MyDrive/Pibic Oliveira/dataset/val... found 592 images in 3 classes âœ… 
test: /content/drive/MyDrive/Pibic Oliveira/dataset/test... found 1172 images in 3 classes âœ… 
Overriding model.yaml nc=1000 with nc=3

                   from  n    params  module                                       arguments                     
  0                  -1  1      1856  ultralytics.nn.modules.conv.Conv             [3, 64, 3, 2]                 
  1                  -1  1     73984  ultralytics.nn.modules.conv.Conv             [64, 128, 3, 2]               
  2                  -1  3    279808  ultralytics.nn.modules.block.C2f             [128, 128, 3, True]           
  3                  -1  1    295424  ultralytics.nn.modules.conv.Conv             [128, 256, 3, 2]              
  4                  -1  6   2101248  ultralytics.nn.modules.block.C2f             [256, 256, 6, True]           
  5                  -1  1   1180672  ultralytics.nn.modules.conv.Conv             [256, 512, 3, 2]              
  6                  -1  6   8396800  ultralytics.nn.modules.block.C2f             [512, 512, 6, True]           
  7                  -1  1   4720640  ultralytics.nn.modules.conv.Conv             [512, 1024, 3, 2]             
  8                  -1  3  17836032  ultralytics.nn.modules.block.C2f             [1024, 1024, 3, True]         
  9                  -1  1   1317123  ultralytics.nn.modules.head.Classify         [1024, 3]                     
YOLOv8l-cls summary: 183 layers, 36203587 parameters, 36203587 gradients, 99.1 GFLOPs
Transferred 300/302 items from pretrained weights
TensorBoard: Start with 'tensorboard --logdir runs/classify/train2', view at http://localhost:6006/
AMP: running Automatic Mixed Precision (AMP) checks with YOLOv8n...
AMP: checks passed âœ…
train: Scanning /content/drive/MyDrive/Pibic Oliveira/dataset/train... 4113 images, 0 corrupt: 100%|â–ˆâ–ˆâ–ˆâ–ˆâ–ˆâ–ˆâ–ˆâ–ˆâ–ˆâ–ˆ| 4113/4113 [00:00<?, ?it/s]
…
gment, erasing=0.4, crop_fraction=1.0, cfg=None, tracker=botsort.yaml, save_dir=runs/classify/train3
train: /content/drive/MyDrive/Pibic Oliveira/dataset/train... found 4113 images in 3 classes âœ… 
val: /content/drive/MyDrive/Pibic Oliveira/dataset/val... found 592 images in 3 classes âœ… 
test: /content/drive/MyDrive/Pibic Oliveira/dataset/test... found 1172 images in 3 classes âœ… 
Overriding model.yaml nc=1000 with nc=3

                   from  n    params  module                                       arguments                     
  0                  -1  1      2320  ultralytics.nn.modules.conv.Conv             [3, 80, 3, 2]                 
  1                  -1  1    115520  ultralytics.nn.modules.conv.Conv             [80, 160, 3, 2]               
  2                  -1  3    436800  ultralytics.nn.modules.block.C2f             [160, 160, 3, True]           
  3                  -1  1    461440  ultralytics.nn.modules.conv.Conv             [160, 320, 3, 2]              
  4                  -1  6   3281920  ultralytics.nn.modules.block.C2f             [320, 320, 6, True]           
  5                  -1  1   1844480  ultralytics.nn.modules.conv.Conv             [320, 640, 3, 2]              
  6                  -1  6  13117440  ultralytics.nn.modules.block.C2f             [640, 640, 6, True]           
  7                  -1  1   7375360  ultralytics.nn.modules.conv.Conv             [640, 1280, 3, 2]             
  8                  -1  3  27865600  ultralytics.nn.modules.block.C2f             [1280, 1280, 3, True]         
  9                  -1  1   1644803  ultralytics.nn.modules.head.Classify         [1280, 3]                     
YOLOv8x-cls summary: 183 layers, 56145683 parameters, 56145683 gradients, 154.3 GFLOPs
Transferred 300/302 items from pretrained weights
TensorBoard: Start with 'tensorboard --logdir runs/classify/train3', view at http://localhost:6006/
AMP: running Automatic Mixed Precision (AMP) checks with YOLOv8n...
AMP: checks passed âœ…
train: Scanning /content/drive/MyDrive/Pibic Oliveira/dataset/train... 4113 images, 0 corrupt: 100%|â–ˆâ–ˆâ–ˆâ–ˆâ–ˆâ–ˆâ–ˆâ–ˆâ–ˆâ–ˆ| 4113/4113 [00:00<?, ?it/s]
…
